…
   "cell_type": "code",
   "execution_count": 67,
   "metadata": {},
   "outputs": [
    {
     "name": "stdout",
     "output_type": "stream",
     "text": [
      "Model: \"BrainDetectionModel\"\n",
      "_________________________________________________________________\n",
      " Layer (type)                Output Shape              Param #   \n",
      "=================================================================\n",
      " input_2 (InputLayer)        [(None, 240, 240, 3)]     0         \n",
      "                                                                 \n",
      " zero_padding2d_1 (ZeroPaddi  (None, 244, 244, 3)      0         \n",
      " ng2D)                                                           \n",
      "                                                                 \n",
      " conv0 (Conv2D)              (None, 238, 238, 32)      4736      \n",
      "                                                                 \n",
      " bn0 (BatchNormalization)    (None, 238, 238, 32)      128       \n",
      "                                                                 \n",
      " activation_1 (Activation)   (None, 238, 238, 32)      0         \n",
      "                                                                 \n",
      " max_pool0 (MaxPooling2D)    (None, 59, 59, 32)        0         \n",
      "                                                                 \n",
      " max_pool1 (MaxPooling2D)    (None, 14, 14, 32)        0         \n",
      "                                                                 \n",
      " flatten_1 (Flatten)         (None, 6272)              0         \n",
      "                                                                 \n",
      " fc (Dense)                  (None, 1)                 6273      \n",
      "                                                                 \n",
      "=================================================================\n",
      "Total params: 11,137\n",
      "Trainable params: 11,073\n",
      "Non-trainable params: 64\n",
      "_________________________________________________________________\n"
     ]
    }
   ],
   "source": [
    "model.summary()"
…
